…
WARNING:tensorflow:Layer lstm will not use cuDNN kernels since it doesn't meet the criteria. It will use a generic GPU kernel as fallback when running on GPU.
WARNING:tensorflow:Layer lstm will not use cuDNN kernels since it doesn't meet the criteria. It will use a generic GPU kernel as fallback when running on GPU.
WARNING:tensorflow:Layer lstm_1 will not use cuDNN kernels since it doesn't meet the criteria. It will use a generic GPU kernel as fallback when running on GPU.
Model: "sequential"
_________________________________________________________________
 Layer (type)                Output Shape              Param #
=================================================================
 embedding (Embedding)       (None, 50, 128)           1280000

 bidirectional (Bidirectiona  (None, 50, 128)          98816
 l)

 lstm_1 (LSTM)               (None, 64)                49408

 dense (Dense)               (None, 10)                650

 dense_1 (Dense)             (None, 4)                 44

=================================================================
Total params: 1,428,918
Trainable params: 1,428,918
Non-trainable params: 0
_________________________________________________________________
Epoch 1/200
2024-11-03 12:17:52.083935: I tensorflow/stream_executor/cuda/cuda_blas.cc:1614] TensorFloat-32 will be used for the matrix multiplication. This will only be logged once.
…
